…
contribuyente (InputLayer)      [(None, 1)]          0                                            
__________________________________________________________________________________________________
anno (InputLayer)               [(None, 1)]          0                                            
__________________________________________________________________________________________________
aduana (InputLayer)             [(None, 1)]          0                                            
__________________________________________________________________________________________________
Embedding_pais_origen_destino ( (None, 1, 22)        2420        pais_origen_destino[0][0]        
__________________________________________________________________________________________________
Embedding_inciso_arancelario (E (None, 1, 155)       545600      inciso_arancelario[0][0]         
__________________________________________________________________________________________________
Embedding_mes (Embedding)       (None, 1, 6)         78          mes[0][0]                        
__________________________________________________________________________________________________
Embedding_contribuyente (Embedd (None, 1, 214)       1340924     contribuyente[0][0]              
__________________________________________________________________________________________________
Embedding_anno (Embedding)      (None, 1, 6)         66          anno[0][0]                       
__________________________________________________________________________________________________
Embedding_aduana (Embedding)    (None, 1, 13)        585         aduana[0][0]                     
__________________________________________________________________________________________________
Flatten_pais_origen_destino (Fl (None, 22)           0           Embedding_pais_origen_destino[0][
__________________________________________________________________________________________________
Flatten_inciso_arancelario (Fla (None, 155)          0           Embedding_inciso_arancelario[0][0
__________________________________________________________________________________________________
Flatten_mes (Flatten)           (None, 6)            0           Embedding_mes[0][0]              
__________________________________________________________________________________________________
Flatten_contribuyente (Flatten) (None, 214)          0           Embedding_contribuyente[0][0]    
__________________________________________________________________________________________________
Flatten_anno (Flatten)          (None, 6)            0           Embedding_anno[0][0]             
__________________________________________________________________________________________________
Flatten_aduana (Flatten)        (None, 13)           0           Embedding_aduana[0][0]           
__________________________________________________________________________________________________
cif (InputLayer)                [(None, 1)]          0                                            
__________________________________________________________________________________________________
cuantia (InputLayer)            [(None, 1)]          0                                            
…
                                                                 Flatten_aduana[0][0]             
                                                                 cif[0][0]                        
                                                                 cuantia[0][0]                    
                                                                 peso_bruto[0][0]                 
                                                                 impuesto_total[0][0]             
__________________________________________________________________________________________________
dense (Dense)                   (None, 600)          252600      combined[0][0]                   
__________________________________________________________________________________________________
batch_normalization (BatchNorma (None, 600)          2400        dense[0][0]                      
__________________________________________________________________________________________________
dropout (Dropout)               (None, 600)          0           batch_normalization[0][0]        
__________________________________________________________________________________________________
dense_1 (Dense)                 (None, 500)          300500      dropout[0][0]                    
__________________________________________________________________________________________________
batch_normalization_1 (BatchNor (None, 500)          2000        dense_1[0][0]                    
__________________________________________________________________________________________________
dropout_1 (Dropout)             (None, 500)          0           batch_normalization_1[0][0]      
__________________________________________________________________________________________________
dense_2 (Dense)                 (None, 100)          50100       dropout_1[0][0]                  
__________________________________________________________________________________________________
batch_normalization_2 (BatchNor (None, 100)          400         dense_2[0][0]                    
__________________________________________________________________________________________________
dropout_2 (Dropout)             (None, 100)          0           batch_normalization_2[0][0]      
__________________________________________________________________________________________________
dense_3 (Dense)                 (None, 1)            101         dropout_2[0][0]                  
==================================================================================================
Total params: 2,497,774
Trainable params: 2,495,374
Non-trainable params: 2,400
__________________________________________________________________________________________________
