…
pais_origen_destino (InputLayer [(None, 1)]          0                                            
__________________________________________________________________________________________________
aduana (InputLayer)             [(None, 1)]          0                                            
__________________________________________________________________________________________________
contribuyente (InputLayer)      [(None, 1)]          0                                            
__________________________________________________________________________________________________
Embedding_anno (Embedding)      (None, 1, 10)        110         anno[0][0]                       
__________________________________________________________________________________________________
Embedding_inciso_arancelario (E (None, 1, 1000)      6367000     inciso_arancelario[0][0]         
__________________________________________________________________________________________________
Embedding_mes (Embedding)       (None, 1, 12)        156         mes[0][0]                        
__________________________________________________________________________________________________
Embedding_pais_origen_destino ( (None, 1, 169)       28730       pais_origen_destino[0][0]        
__________________________________________________________________________________________________
Embedding_aduana (Embedding)    (None, 1, 45)        2070        aduana[0][0]                     
__________________________________________________________________________________________________
Embedding_contribuyente (Embedd (None, 1, 1000)      17247000    contribuyente[0][0]              
__________________________________________________________________________________________________
Flatten_anno (Flatten)          (None, 10)           0           Embedding_anno[0][0]             
__________________________________________________________________________________________________
Flatten_inciso_arancelario (Fla (None, 1000)         0           Embedding_inciso_arancelario[0][0
__________________________________________________________________________________________________
Flatten_mes (Flatten)           (None, 12)           0           Embedding_mes[0][0]              
__________________________________________________________________________________________________
Flatten_pais_origen_destino (Fl (None, 169)          0           Embedding_pais_origen_destino[0][
__________________________________________________________________________________________________
Flatten_aduana (Flatten)        (None, 45)           0           Embedding_aduana[0][0]           
__________________________________________________________________________________________________
Flatten_contribuyente (Flatten) (None, 1000)         0           Embedding_contribuyente[0][0]    
__________________________________________________________________________________________________
cif (InputLayer)                [(None, 1)]          0                                            
__________________________________________________________________________________________________
cuantia (InputLayer)            [(None, 1)]          0                                            
…
                                                                 Flatten_contribuyente[0][0]      
                                                                 cif[0][0]                        
                                                                 cuantia[0][0]                    
                                                                 peso_bruto[0][0]                 
                                                                 impuesto_total[0][0]             
__________________________________________________________________________________________________
dense (Dense)                   (None, 1024)         2294784     combined[0][0]                   
__________________________________________________________________________________________________
batch_normalization (BatchNorma (None, 1024)         4096        dense[0][0]                      
__________________________________________________________________________________________________
dropout (Dropout)               (None, 1024)         0           batch_normalization[0][0]        
__________________________________________________________________________________________________
dense_1 (Dense)                 (None, 512)          524800      dropout[0][0]                    
__________________________________________________________________________________________________
batch_normalization_1 (BatchNor (None, 512)          2048        dense_1[0][0]                    
__________________________________________________________________________________________________
dropout_1 (Dropout)             (None, 512)          0           batch_normalization_1[0][0]      
__________________________________________________________________________________________________
dense_2 (Dense)                 (None, 256)          131328      dropout_1[0][0]                  
__________________________________________________________________________________________________
batch_normalization_2 (BatchNor (None, 256)          1024        dense_2[0][0]                    
__________________________________________________________________________________________________
dropout_2 (Dropout)             (None, 256)          0           batch_normalization_2[0][0]      
__________________________________________________________________________________________________
dense_3 (Dense)                 (None, 1)            257         dropout_2[0][0]                  
==================================================================================================
Total params: 26,603,403
Trainable params: 26,599,819
Non-trainable params: 3,584
__________________________________________________________________________________________________
